Model: "model_1"
__________________________________________________________________________________________________
Layer (type)                    Output Shape         Param #     Connected to
==================================================================================================
input_2 (InputLayer)            [(None, 129, 8, 1)]  0
__________________________________________________________________________________________________
zero_padding2d_1 (ZeroPadding2D (None, 137, 8, 1)    0           input_2[0][0]
__________________________________________________________________________________________________
conv2d_16 (Conv2D)              (None, 129, 1, 18)   1296        zero_padding2d_1[0][0]
__________________________________________________________________________________________________
activation_15 (Activation)      (None, 129, 1, 18)   0           conv2d_16[0][0]
__________________________________________________________________________________________________
batch_normalization_15 (BatchNo (None, 129, 1, 18)   72          activation_15[0][0]
__________________________________________________________________________________________________
conv2d_17 (Conv2D)              (None, 129, 1, 30)   2700        batch_normalization_15[0][0]
__________________________________________________________________________________________________
activation_16 (Activation)      (None, 129, 1, 30)   0           conv2d_17[0][0]
__________________________________________________________________________________________________
batch_normalization_16 (BatchNo (None, 129, 1, 30)   120         activation_16[0][0]
__________________________________________________________________________________________________
conv2d_18 (Conv2D)              (None, 129, 1, 8)    2160        batch_normalization_16[0][0]
__________________________________________________________________________________________________
activation_17 (Activation)      (None, 129, 1, 8)    0           conv2d_18[0][0]
__________________________________________________________________________________________________
batch_normalization_17 (BatchNo (None, 129, 1, 8)    32          activation_17[0][0]
__________________________________________________________________________________________________
conv2d_19 (Conv2D)              (None, 129, 1, 18)   1296        batch_normalization_17[0][0]
__________________________________________________________________________________________________
activation_18 (Activation)      (None, 129, 1, 18)   0           conv2d_19[0][0]
__________________________________________________________________________________________________
batch_normalization_18 (BatchNo (None, 129, 1, 18)   72          activation_18[0][0]
__________________________________________________________________________________________________
conv2d_20 (Conv2D)              (None, 129, 1, 30)   2700        batch_normalization_18[0][0]
__________________________________________________________________________________________________
activation_19 (Activation)      (None, 129, 1, 30)   0           conv2d_20[0][0]
__________________________________________________________________________________________________
batch_normalization_19 (BatchNo (None, 129, 1, 30)   120         activation_19[0][0]
__________________________________________________________________________________________________
conv2d_21 (Conv2D)              (None, 129, 1, 8)    2160        batch_normalization_19[0][0]
__________________________________________________________________________________________________
activation_20 (Activation)      (None, 129, 1, 8)    0           conv2d_21[0][0]
__________________________________________________________________________________________________
batch_normalization_20 (BatchNo (None, 129, 1, 8)    32          activation_20[0][0]
__________________________________________________________________________________________________
conv2d_22 (Conv2D)              (None, 129, 1, 18)   1296        batch_normalization_20[0][0]
__________________________________________________________________________________________________
activation_21 (Activation)      (None, 129, 1, 18)   0           conv2d_22[0][0]
__________________________________________________________________________________________________
batch_normalization_21 (BatchNo (None, 129, 1, 18)   72          activation_21[0][0]
__________________________________________________________________________________________________
conv2d_23 (Conv2D)              (None, 129, 1, 30)   2700        batch_normalization_21[0][0]
__________________________________________________________________________________________________
activation_22 (Activation)      (None, 129, 1, 30)   0           conv2d_23[0][0]
__________________________________________________________________________________________________
batch_normalization_22 (BatchNo (None, 129, 1, 30)   120         activation_22[0][0]
__________________________________________________________________________________________________
conv2d_24 (Conv2D)              (None, 129, 1, 8)    2160        batch_normalization_22[0][0]
__________________________________________________________________________________________________
activation_23 (Activation)      (None, 129, 1, 8)    0           conv2d_24[0][0]
__________________________________________________________________________________________________
batch_normalization_23 (BatchNo (None, 129, 1, 8)    32          activation_23[0][0]
__________________________________________________________________________________________________
conv2d_25 (Conv2D)              (None, 129, 1, 18)   1296        batch_normalization_23[0][0]
__________________________________________________________________________________________________
activation_24 (Activation)      (None, 129, 1, 18)   0           conv2d_25[0][0]
__________________________________________________________________________________________________
batch_normalization_24 (BatchNo (None, 129, 1, 18)   72          activation_24[0][0]
__________________________________________________________________________________________________
conv2d_26 (Conv2D)              (None, 129, 1, 30)   2700        batch_normalization_24[0][0]
__________________________________________________________________________________________________
tf.__operators__.add_2 (TFOpLam (None, 129, 1, 30)   0           conv2d_26[0][0]
                                                                 conv2d_20[0][0]
__________________________________________________________________________________________________
activation_25 (Activation)      (None, 129, 1, 30)   0           tf.__operators__.add_2[0][0]
__________________________________________________________________________________________________
batch_normalization_25 (BatchNo (None, 129, 1, 30)   120         activation_25[0][0]
__________________________________________________________________________________________________
conv2d_27 (Conv2D)              (None, 129, 1, 8)    2160        batch_normalization_25[0][0]
__________________________________________________________________________________________________
activation_26 (Activation)      (None, 129, 1, 8)    0           conv2d_27[0][0]
__________________________________________________________________________________________________
batch_normalization_26 (BatchNo (None, 129, 1, 8)    32          activation_26[0][0]
__________________________________________________________________________________________________
conv2d_28 (Conv2D)              (None, 129, 1, 18)   1296        batch_normalization_26[0][0]
__________________________________________________________________________________________________
activation_27 (Activation)      (None, 129, 1, 18)   0           conv2d_28[0][0]
__________________________________________________________________________________________________
batch_normalization_27 (BatchNo (None, 129, 1, 18)   72          activation_27[0][0]
__________________________________________________________________________________________________
conv2d_29 (Conv2D)              (None, 129, 1, 30)   2700        batch_normalization_27[0][0]
__________________________________________________________________________________________________
tf.__operators__.add_3 (TFOpLam (None, 129, 1, 30)   0           conv2d_29[0][0]
                                                                 conv2d_17[0][0]
__________________________________________________________________________________________________
activation_28 (Activation)      (None, 129, 1, 30)   0           tf.__operators__.add_3[0][0]
__________________________________________________________________________________________________
batch_normalization_28 (BatchNo (None, 129, 1, 30)   120         activation_28[0][0]
__________________________________________________________________________________________________
conv2d_30 (Conv2D)              (None, 129, 1, 8)    2160        batch_normalization_28[0][0]
__________________________________________________________________________________________________
activation_29 (Activation)      (None, 129, 1, 8)    0           conv2d_30[0][0]
__________________________________________________________________________________________________
batch_normalization_29 (BatchNo (None, 129, 1, 8)    32          activation_29[0][0]
__________________________________________________________________________________________________
spatial_dropout2d_1 (SpatialDro (None, 129, 1, 8)    0           batch_normalization_29[0][0]
__________________________________________________________________________________________________
conv2d_31 (Conv2D)              (None, 129, 1, 1)    1033        spatial_dropout2d_1[0][0]
==================================================================================================
Total params: 32,933
Trainable params: 32,373
Non-trainable params: 560
__________________________________________________________________________________________________
2022-03-03 12:11:58.467698: I tensorflow/compiler/mlir/mlir_graph_optimization_pass.cc:116] None of the MLIR optimization passes are enabled (registered 2)
…
